Diffuser(
  (diffusion_module): DiffusionHead(
    (pair_cond_initial_norm): LayerNorm()
    (pair_cond_initial_projection): Linear(in_features=267, out_features=128, bias=True)
    (pair_transition_blocks): ModuleList(
      (0-1): 2 x TransitionBlock(
        (adaptive_layernorm): AdaptiveLayerNorm(
          (layer_norm): LayerNorm()
          (single_cond_layer_norm): LayerNorm()
          (single_cond_scale): Linear()
          (single_cond_bias): Linear()
        )
        (ffw_transition1): Linear(in_features=128, out_features=512, bias=True)
        (adaptive_zero_init): AdaptiveZeroInit(
          (transition2): Linear()
          (adaptive_zero_cond): Linear()
        )
      )
    )
    (single_cond_initial_norm): LayerNorm()
    (single_cond_initial_projection): Linear(in_features=831, out_features=384, bias=True)
    (noise_embedding_initial_norm): LayerNorm()
    (noise_embedding_initial_projection): Linear(in_features=256, out_features=384, bias=True)
    (single_transition_blocks): ModuleList(
      (0-1): 2 x TransitionBlock(
        (adaptive_layernorm): AdaptiveLayerNorm(
          (layer_norm): LayerNorm()
          (single_cond_layer_norm): LayerNorm()
          (single_cond_scale): Linear()
          (single_cond_bias): Linear()
        )
        (ffw_transition1): Linear(in_features=384, out_features=1536, bias=True)
        (adaptive_zero_init): AdaptiveZeroInit(
          (transition2): Linear()
          (adaptive_zero_cond): Linear()
        )
      )
    )
    (diffusion_atom_cross_att_encoder): AtomCrossAttEncoder(
      (embed_ref_pos): Linear(in_features=3, out_features=128, bias=True)
      (embed_ref_mask): Linear(in_features=1, out_features=128, bias=True)
      (embed_ref_element): Linear(in_features=128, out_features=128, bias=True)
      (embed_ref_charge): Linear(in_features=1, out_features=128, bias=True)
      (embed_ref_atom_name): Linear(in_features=256, out_features=128, bias=True)
      (single_to_pair_cond_row): Linear(in_features=128, out_features=16, bias=True)
      (single_to_pair_cond_col): Linear(in_features=128, out_features=16, bias=True)
      (embed_pair_offsets): Linear(in_features=3, out_features=16, bias=True)
      (embed_pair_distances): Linear(in_features=1, out_features=16, bias=True)
      (embed_pair_offsets_valid): Linear(in_features=1, out_features=16, bias=True)
      (pair_mlp): Sequential(
        (0): ReLU()
        (1): Linear(in_features=16, out_features=16, bias=True)
        (2): ReLU()
        (3): Linear(in_features=16, out_features=16, bias=True)
        (4): ReLU()
        (5): Linear(in_features=16, out_features=16, bias=True)
      )
      (atom_transformer_encoder): CrossAttTransformer(
        (pair_input_layer_norm): LayerNorm((16,), eps=1e-05, elementwise_affine=False)
        (pair_logits_projection): Linear(in_features=16, out_features=12, bias=True)
        (blocks): ModuleList(
          (0-2): 3 x ModuleDict(
            (cross_attention): CrossAttention(
              (q_projection): Linear(in_features=128, out_features=128, bias=True)
              (k_projection): Linear(in_features=128, out_features=128, bias=False)
              (v_projection): Linear(in_features=128, out_features=128, bias=True)
              (gating_query): Linear(in_features=128, out_features=128, bias=True)
              (adaptive_zero_init): AdaptiveZeroInit(
                (transition2): Linear()
                (adaptive_zero_cond): Linear()
              )
              (adaptive_layernorm_q): AdaptiveLayerNorm(
                (layer_norm): LayerNorm()
                (single_cond_layer_norm): LayerNorm()
                (single_cond_scale): Linear()
                (single_cond_bias): Linear()
              )
              (adaptive_layernorm_k): AdaptiveLayerNorm(
                (layer_norm): LayerNorm()
                (single_cond_layer_norm): LayerNorm()
                (single_cond_scale): Linear()
                (single_cond_bias): Linear()
              )
            )
            (transition): TransitionBlock(
              (adaptive_layernorm): AdaptiveLayerNorm(
                (layer_norm): LayerNorm()
                (single_cond_layer_norm): LayerNorm()
                (single_cond_scale): Linear()
                (single_cond_bias): Linear()
              )
              (ffw_transition1): Linear(in_features=128, out_features=512, bias=True)
              (adaptive_zero_init): AdaptiveZeroInit(
                (transition2): Linear()
                (adaptive_zero_cond): Linear()
              )
            )
          )
        )
      )
      (project_atom_features_for_aggr): Linear(in_features=128, out_features=768, bias=True)
      (embed_trunk_single_cond): Linear(in_features=128, out_features=128, bias=True)
      (lnorm_trunk_single_cond): LayerNorm((128,), eps=1e-05, elementwise_affine=True)
      (atom_positions_to_features): Linear(in_features=3, out_features=128, bias=True)
      (lnorm_trunk_pair_cond): LayerNorm((128,), eps=1e-05, elementwise_affine=True)
      (embed_trunk_pair_cond): Linear(in_features=128, out_features=16, bias=True)
    )
    (single_cond_embedding_norm): LayerNorm()
    (single_cond_embedding_projection): Linear(in_features=768, out_features=768, bias=True)
    (transformer): Transformer(
      (pair_logits_projection): Linear(in_features=64, out_features=64, bias=True)
      (pair_input_layer_norm): LayerNorm((16,), eps=1e-05, elementwise_affine=False)
      (super_blocks): ModuleList(
        (0-5): 6 x ModuleList(
          (0-3): 4 x ModuleDict(
            (self_attention): SelfAttention(
              (q_projection): Linear(in_features=128, out_features=128, bias=True)
              (k_projection): Linear(in_features=128, out_features=128, bias=False)
              (v_projection): Linear(in_features=128, out_features=128, bias=False)
              (gating_query): Linear(in_features=128, out_features=128, bias=True)
              (adaptive_layernorm): AdaptiveLayerNorm(
                (layer_norm): LayerNorm()
                (single_cond_layer_norm): LayerNorm()
                (single_cond_scale): Linear()
                (single_cond_bias): Linear()
              )
              (adaptive_zero_init): AdaptiveZeroInit(
                (transition2): Linear()
                (adaptive_zero_cond): Linear()
              )
            )
            (transition_block): TransitionBlock(
              (adaptive_layernorm): AdaptiveLayerNorm(
                (layer_norm): LayerNorm()
                (single_cond_layer_norm): LayerNorm()
                (single_cond_scale): Linear()
                (single_cond_bias): Linear()
              )
              (ffw_transition1): Linear(in_features=128, out_features=512, bias=True)
              (adaptive_zero_init): AdaptiveZeroInit(
                (transition2): Linear()
                (adaptive_zero_cond): Linear()
              )
            )
          )
        )
      )
    )
    (output_norm): LayerNorm()
    (diffusion_atom_cross_att_decoder): AtomCrossAttDecoder(
      (project_token_features_for_broadcast): Linear(in_features=768, out_features=128, bias=True)
      (atom_transformer_decoder): CrossAttTransformer(
        (pair_input_layer_norm): LayerNorm((16,), eps=1e-05, elementwise_affine=False)
        (pair_logits_projection): Linear(in_features=16, out_features=12, bias=True)
        (blocks): ModuleList(
          (0-2): 3 x ModuleDict(
            (cross_attention): CrossAttention(
              (q_projection): Linear(in_features=128, out_features=128, bias=True)
              (k_projection): Linear(in_features=128, out_features=128, bias=False)
              (v_projection): Linear(in_features=128, out_features=128, bias=True)
              (gating_query): Linear(in_features=128, out_features=128, bias=True)
              (adaptive_zero_init): AdaptiveZeroInit(
                (transition2): Linear()
                (adaptive_zero_cond): Linear()
              )
              (adaptive_layernorm_q): AdaptiveLayerNorm(
                (layer_norm): LayerNorm()
                (single_cond_layer_norm): LayerNorm()
                (single_cond_scale): Linear()
                (single_cond_bias): Linear()
              )
              (adaptive_layernorm_k): AdaptiveLayerNorm(
                (layer_norm): LayerNorm()
                (single_cond_layer_norm): LayerNorm()
                (single_cond_scale): Linear()
                (single_cond_bias): Linear()
              )
            )
            (transition): TransitionBlock(
              (adaptive_layernorm): AdaptiveLayerNorm(
                (layer_norm): LayerNorm()
                (single_cond_layer_norm): LayerNorm()
                (single_cond_scale): Linear()
                (single_cond_bias): Linear()
              )
              (ffw_transition1): Linear(in_features=128, out_features=512, bias=True)
              (adaptive_zero_init): AdaptiveZeroInit(
                (transition2): Linear()
                (adaptive_zero_cond): Linear()
              )
            )
          )
        )
      )
      (atom_features_layer_norm): LayerNorm((128,), eps=1e-05, elementwise_affine=True)
      (atom_features_to_position_update): Linear(in_features=128, out_features=3, bias=True)
    )
  )
  (atom_cross_att_encoder): AtomCrossAttEncoder(
    (embed_ref_pos): Linear(in_features=3, out_features=128, bias=True)
    (embed_ref_mask): Linear(in_features=1, out_features=128, bias=True)
    (embed_ref_element): Linear(in_features=128, out_features=128, bias=True)
    (embed_ref_charge): Linear(in_features=1, out_features=128, bias=True)
    (embed_ref_atom_name): Linear(in_features=256, out_features=128, bias=True)
    (single_to_pair_cond_row): Linear(in_features=128, out_features=16, bias=True)
    (single_to_pair_cond_col): Linear(in_features=128, out_features=16, bias=True)
    (embed_pair_offsets): Linear(in_features=3, out_features=16, bias=True)
    (embed_pair_distances): Linear(in_features=1, out_features=16, bias=True)
    (embed_pair_offsets_valid): Linear(in_features=1, out_features=16, bias=True)
    (pair_mlp): Sequential(
      (0): ReLU()
      (1): Linear(in_features=16, out_features=16, bias=True)
      (2): ReLU()
      (3): Linear(in_features=16, out_features=16, bias=True)
      (4): ReLU()
      (5): Linear(in_features=16, out_features=16, bias=True)
    )
    (atom_transformer_encoder): CrossAttTransformer(
      (pair_input_layer_norm): LayerNorm((16,), eps=1e-05, elementwise_affine=False)
      (pair_logits_projection): Linear(in_features=16, out_features=12, bias=True)
      (blocks): ModuleList(
        (0-2): 3 x ModuleDict(
          (cross_attention): CrossAttention(
            (q_projection): Linear(in_features=128, out_features=128, bias=True)
            (k_projection): Linear(in_features=128, out_features=128, bias=False)
            (v_projection): Linear(in_features=128, out_features=128, bias=True)
            (gating_query): Linear(in_features=128, out_features=128, bias=True)
            (adaptive_zero_init): AdaptiveZeroInit(
              (transition2): Linear()
              (adaptive_zero_cond): Linear()
            )
            (adaptive_layernorm_q): AdaptiveLayerNorm(
              (layer_norm): LayerNorm()
              (single_cond_layer_norm): LayerNorm()
              (single_cond_scale): Linear()
              (single_cond_bias): Linear()
            )
            (adaptive_layernorm_k): AdaptiveLayerNorm(
              (layer_norm): LayerNorm()
              (single_cond_layer_norm): LayerNorm()
              (single_cond_scale): Linear()
              (single_cond_bias): Linear()
            )
          )
          (transition): TransitionBlock(
            (adaptive_layernorm): AdaptiveLayerNorm(
              (layer_norm): LayerNorm()
              (single_cond_layer_norm): LayerNorm()
              (single_cond_scale): Linear()
              (single_cond_bias): Linear()
            )
            (ffw_transition1): Linear(in_features=128, out_features=512, bias=True)
            (adaptive_zero_init): AdaptiveZeroInit(
              (transition2): Linear()
              (adaptive_zero_cond): Linear()
            )
          )
        )
      )
    )
    (project_atom_features_for_aggr): Linear(in_features=128, out_features=384, bias=True)
    (embed_trunk_single_cond): Linear(in_features=128, out_features=128, bias=True)
    (lnorm_trunk_single_cond): LayerNorm((128,), eps=1e-05, elementwise_affine=True)
    (atom_positions_to_features): Linear(in_features=3, out_features=128, bias=True)
    (lnorm_trunk_pair_cond): LayerNorm((128,), eps=1e-05, elementwise_affine=True)
    (embed_trunk_pair_cond): Linear(in_features=128, out_features=16, bias=True)
  )
)
diffusion_module.pair_cond_initial_norm.weight: torch.Size([267])
diffusion_module.pair_cond_initial_projection.weight: torch.Size([128, 267])
diffusion_module.pair_cond_initial_projection.bias: torch.Size([128])
diffusion_module.pair_transition_blocks.0.adaptive_layernorm.single_cond_layer_norm.weight: torch.Size([128])
diffusion_module.pair_transition_blocks.0.ffw_transition1.weight: torch.Size([512, 128])
…
